notebooks/trained_model.pt (torch, 174983 bytes, 6 tensors)

tensor f4 [8, 1, 1, 8]
0.027874984 0.055271592 0.21614134 -0.0024285628 0.024843827 0.1313548 -0.33526707 -0.1559329
0.030178113 -0.23002823 0.36486018 -0.15220371 0.16098326 -0.25858557 0.12024644 0.12042932
0.0739916 0.13091698 -0.1111706 -0.25268576 0.29313976 -0.20568463 0.07650771 -0.1818479
-0.09429182 -0.13463755 0.2484981 0.30997404 -0.25029776 -0.06873587 0.29037556 -0.33760297
-0.27090347 -0.023694042 0.21593313 0.39761218 0.14502941 0.22731417 -0.37274104 0.1444756
-0.30382457 -0.028498558 -0.00858172 -0.20102601 -0.120889224 -0.18169734 -0.36759886 -0.10355826
-0.25257242 -0.30900902 -0.11272166 0.18455233 -0.13238715 0.1485183 0.060753703 0.08878692
-0.22600633 -0.35346442 -0.21785517 -0.19203915 0.056767713 -0.11631342 0.32416338 0.06146011
00000000: 145a e43c 7764 623d 2854 5d3e 8628 1fbb
00000010: 4885 cb3c df81 063e 20a8 abbe e0ac 1fbe
00000020: 1738 f73c 858c 6bbe f4ce ba3e 4adb 1bbe
00000030: ccd8 243e 5465 84be c443 f63d a6a3 f63d
00000040: e888 973d 1a0f 063e 69ad e3bd 0760 81be
00000050: 6a16 963e fe9e 52be 13b0 9c3d 5636 3abe
00000060: 121c c1bd 6dde 09be 4976 7e3e ebb4 9e3e
00000070: 0727 80be 64c5 8cbd 1bac 943e 4cda acbe
00000080: dcb3 8abe 021a c2bc 931d 5d3e d393 cb3e
00000090: 9782 143e 0cc5 683e ead7 bebe 69f1 133e
000000a0: e58e 9bbe cf75 e9bc 589a 0cbc c3d9 4dbe
000000b0: c594 f7bd de0e 3abe eb35 bcbe 5a16 d4bd
000000c0: 2c51 81be 6e36 9ebe 9dda e6bd 49fb 3c3e
000000d0: 7f90 07be 2e15 183e e0d8 783d ebd5 b53d
000000e0: 346e 67be 4af9 b4be 6d15 5fbe e9a5 44be
000000f0: 4385 683d bb35 eebd bef8 a53e 99bd 7b3d

tensor f4 [8]
0.08694515 -0.23601472 -0.100144945 0.0017491602 0.021224588 -0.0035866348 0.11086742 -0.012019579
00000000: 4c10 b23d d8ad 71be cb18 cdbd 1444 e53a
00000010: 30df ad3c bf0d 6bbb 750e e33d c5ed 44bc

fc1.weight f4 [32, 1344]
-0.000106513384 -0.000113677364 -0.00010956498 -0.000115603456 -0.00011250707 -0.00011543333 -0.00010683553 -0.000115545074
-0.00010893248 -0.00011229436 -0.00011029416 -0.0001029342 -0.000111616144 -0.00011315859 -0.000115578136 -0.00010386533
-0.000109987755 -0.000101144586 -0.0001144438 -0.00011338765 -0.00011557885 -0.00011452977 -0.00011285662 -0.00010817725
-0.000105311294 -0.00010890537 -0.0001121754 -0.00011557822 -0.000114747476 -0.00010268313 -0.000113836315 -0.00011372421
-0.00011546865 -0.00011548064 -0.00010704386 -0.000113330425 -0.00010647267 -0.00011544477 -0.000104379375 -0.00011393431
-0.00011560299 -0.00011457507 -0.000113277114 -0.000103310835 -0.00011424672 -0.000107708925 -0.000115589355 -0.00011418589
-0.000112528796 -0.000113039496 -0.0001143843 -0.000115473595 -0.00011136425 -0.00011148493 -0.0001078232 -0.00011493414
0.014076619 -0.015123467 -0.0125544155 0.013445589 -0.03446856 -0.017655712 -0.007143891 0.018249195
0.03440632 -0.0089506665 0.0068950346 0.045730613 0.016957983 0.0013195211 0.023892317 0.029199947
0.02034262 0.019270165 0.024044432 0.008754372 0.027594358 0.015169731 0.0099375 2.518523e-05
-0.019825151 0.008169232 0.015609488 0.0091361655 0.010950887 0.00039792422 -0.013004005 0.031463087
-0.00755188 0.0032947285 -0.008414169 0.0341801 -0.0064908275 0.025052832 -0.019339012 0.039695058
0.0039992486 0.0041850745 0.019454854 -0.008550747 0.0028054735 0.0026467263 0.008802175 0.0071538873
-0.0137235895 0.02065525 -0.003012027 0.013651519 -0.02367809 0.05962456 0.021178046 0.013274142
-0.00011388885 -0.000114456634 -0.00011515586 -0.00011481449 -0.000112427006 -0.00011332125 -0.00011215468 -0.00010890052
-0.000112066875 -0.000107349115 -0.000114985305 -0.00011195155 -0.00011261191 -0.00011559526 -0.00011437424 -0.000105430154
-0.0001153457 -0.00010117469 -0.00011540859 -0.00010310878 -0.00011539775 -0.000104725754 -0.00010823118 -0.00010258959
-0.00010502039 -0.00011427737 -0.00011447127 -0.00011282884 -0.00011397326 -0.000113445145 -0.00011181718 -0.000106620806
-0.00010462431 -0.00011399589 -0.00010585401 -0.00011558637 -0.00010261642 -0.00010177414 -0.00011467624 -0.0001148029
-0.000115573945 -0.00011251397 -0.00011069114 -0.00011548079 -0.00011276735 -0.00011542406 -0.000115398645 -0.000102398786
-0.0001061372 -0.000107396256 -0.00011374849 -0.000104123494 -0.000102606515 -0.00010604161 -0.00011544896 -0.00011549998
0.0048464583 0.0049216677 0.0048587355 0.0047328183 0.004276878 0.004928848 0.0050111907 0.0049398975
0.00473264 0.0048464737 0.0052703177 0.0043384414 0.0042789555 0.004335446 0.0048386464 0.004858757
0.0047578863 0.004944647 0.005014264 0.0044285124 0.005044819 0.0047865836 0.0048734485 0.004937901
0.004602206 0.0047510564 0.0055157975 0.004862168 0.004933823 0.005052621 0.004785868 0.00493466
0.004831223 0.0048877182 0.0048756027 0.004835467 0.0050853295 0.0048464662 0.004725398 0.0048488555
0.0049734334 0.0047534383 0.0054198983 0.004968357 0.004832112 0.0050572427 0.004881027 0.004986006
0.0049090097 0.004776793 0.004970471 0.005501943 0.0050426056 0.004954853 0.004726374 0.004999487
0.0071504773 -0.018587125 0.0039545433 0.0043702414 -0.017255738 0.014186836 -0.017516246 0.027073063
-0.02039198 0.0050955038 -0.025705686 0.022462277 0.04906086 0.020591376 0.023651257 -0.026753208
-0.007898843 0.012549414 0.041905753 0.044832442 0.0051577417 0.00051783636 -0.012357763 -0.018495707
0.030315777 -0.015881542 0.012868592 -0.028537733 0.02123653 0.060703274 0.025711436 0.04105071
00000000: f05f dfb8 1266 eeb8 40c6 e5b8 2270 f2b8
00000010: c6f1 ebb8 cc14 f2b8 e30c e0b8 ca50 f2b8
00000020: ae72 e4b8 937f ebb8 ba4d e7b8 61de d7b8
00000030: 7613 eab8 8e4f edb8 8a62 f2b8 46d2 d9b8
00000040: 3aa9 e6b8 961d d4b8 8c01 f0b8 88ca edb8
00000050: ec62 f2b8 b42f f0b8 70ad ecb8 38dd e2b8
00000060: 92da dcb8 2064 e4b8 b63f ebb8 9662 f2b8
00000070: 95a4 f0b8 9657 d7b8 68bb eeb8 387f eeb8
00000080: c227 f2b8 322e f2b8 bc7c e0b8 cfab edb8
00000090: 144a dfb8 f01a f2b8 40e6 dab8 04f0 eeb8
000000a0: e26f f2b8 0648 f0b8 308f edb8 95a8 d8b8
000000b0: be97 efb8 cae1 e1b8 9068 f2b8 1577 efb8
000000c0: 70fd ebb8 9e0f edb8 9ae1 efb8 6a2a f2b8
000000d0: 3a8c e9b8 04cd e9b8 241f e2b8 cc08 f1b8
000000e0: 9fa1 663c 6bc8 77bc 09b1 4dbc e34a 5c3c
000000f0: e82e 0dbd b6a2 90bc 4d17 eabb 567f 953c
00000100: a4ed 0c3d d1a5 12bc beef e13b 0650 3b3d
00000110: 78eb 8a3c c8f3 ac3a d2b9 c33c ba34 ef3c
00000120: 91a5 a63c 77dc 9d3c d4f8 c43c 7f6e 0f3c
00000130: 900d e23c 778a 783c e5d0 223c df44 d337
00000140: 5b68 a2bc 3ed8 053c f0be 7f3c dbaf 153c
00000150: 596b 333c 7ca0 d039 c00e 55bc 70df 003d
00000160: c375 f7bb 5fec 573b 95db 09bc 6f00 0c3d
00000170: 02b1 d4bb 993b cd3c d96c 9ebc 4997 223d
00000180: 210c 833b f322 893b c95f 9f3c 6f18 0cbc
00000190: 09dc 373b b374 2d3b ff36 103c 286b ea3b
000001a0: e8d8 60bc 3335 a93c 6d65 45bb 9faa 5f3c
000001b0: 8ef8 c1bc e238 743d 957d ad3c c97b 593c
000001c0: 9cd7 eeb8 7008 f0b8 d57f f1b8 8fc8 f0b8
000001d0: cac6 ebb8 e2a6 edb8 9634 ebb8 8661 e4b8
000001e0: 7205 ebb8 9e20 e1b8 4424 f1b8 88c7 eab8
000001f0: 0f2a ecb8 bc6b f2b8 34dc efb8 621a ddb8
00000200: c0e5 f1b8 c02d d4b8 8407 f2b8 1b3c d8b8
00000210: b201 f2b8 36a0 dbb8 2cfa e2b8 5e25 d7b8
00000220: 643e dcb8 32a8 efb8 4c10 f0b8 869e ecb8
00000230: ee04 efb8 66e9 edb8 647f eab8 9c99 dfb8
00000240: c069 dbb8 1411 efb8 f0fd ddb8 f666 f2b8
00000250: c533 d7b8 936f d5b8 567e f0b8 56c2 f0b8
00000260: 4a60 f2b8 7af5 ebb8 da22 e8b8 472e f2b8
00000270: 837d ecb8 d20f f2b8 2d02 f2b8 eebe d6b8
00000280: fa95 deb8 ed39 e1b8 418c eeb8 e05c dab8
00000290: 742e d7b8 a862 deb8 301d f2b8 9438 f2b8
000002a0: 0acf 9e3b f145 a13b 0736 9f3b c215 9b3b
000002b0: 0e25 8c3b 2c82 a13b ea34 a43b ddde a13b
000002c0: 4314 9b3b 2bcf 9e3b a1b2 ac3b 7c29 8e3b
000002d0: 7b36 8c3b 5b10 8e3b 828d 9e3b 3536 9f3b
000002e0: 0be8 9b3b b506 a23b b24e a43b 0e1d 913b
000002f0: 024f a53b c6d8 9c3b 73b1 9f3b 1ece a13b
00000300: 1ace 963b c0ae 9b3b ddbd b43b d252 9f3b
00000310: e8ab a13b 7590 a53b c5d2 9c3b eeb2 a13b
00000320: 3c4f 9e3b 2729 a03b 85c3 9f3b d672 9e3b
00000330: d6a2 a63b 1bcf 9e3b 83d7 9a3b 26e3 9e3b
00000340: 2ff8 a23b bbc2 9b3b 6799 b13b 99cd a23b
00000350: b256 9e3b 3ab7 a53b 06f1 9f3b a661 a33b
00000360: c2db a03b a586 9c3b 55df a23b a549 b43b
00000370: 713c a53b 525c a23b b3df 9a3b bdd2 a33b
00000380: 8d4e ea3b 0744 98bc 1d95 813b 3e34 8f3b
00000390: e85b 8dbc e76f 683c 3b7e 8fbc 54c8 dd3c
000003a0: 150d a7bc 2ff8 a63b bb94 d2bc cf02 b83c
000003b0: 0af4 483d 3faf a83c 48c0 c13c 8b29 dbbc
000003c0: 266a 01bc 0f9c 4d3c 5ea5 2b3d 39a2 373d
000003d0: 4602 a93b 69bf 073a 3778 4abc 4f84 97bc
000003e0: cb58 f83c 021a 82bc c9d6 523c f7c7 e9bc
000003f0: 3bf8 ad3c ffa3 783d caa0 d23c ca24 283d

fc1.bias f4 [32]
0.014545666 0.011352377 0.003714723 -0.0018146585 -0.00061914074 -0.025965216 0.0015160266 -0.00032655513
0.02039783 0.0006412666 -0.013596062 0.0023457925 -0.009301377 0.018803017 -0.009351144 -0.02401238
0.023404326 -0.023092745 0.0014024257 0.010559511 -0.010919644 -0.01135571 -0.015991794 -0.005253119
-0.00452465 -0.015809216 -0.0038586652 0.031254016 0.008091054 -0.0034809357 -0.0040195724 -0.011888696
00000000: f250 6e3c 52ff 393c b672 733b d6d9 edba
00000010: d54d 22ba 01b5 d4bc 69b5 c63a 7d35 abb9
00000020: 5a19 a73c ac1a 283a 04c2 5ebc debb 193b
00000030: ce64 18bc c908 9a3c 8a35 19bc 9cb5 c4bc
00000040: 6eba bf3c ff2c bdbc 99d1 b73a cd01 2d3c
00000050: 4ee8 32bc 4d0d 3abc 3901 83bc 5b22 acbb
00000060: 8443 94bb 5482 81bc a9e1 7cbb 3604 003d
00000070: 5790 043c 6920 64bb 9eb6 83bb cec8 42bc

fc2.weight f4 [2, 32]
0.10556411 -0.06449656 -0.13043201 -0.24047819 -0.0039719897 -0.025724387 0.005801586 -0.045561567
-0.108667456 -0.08250266 0.26142734 -0.17690603 0.114416935 -0.21263582 0.13410808 -0.088381186
-0.15161298 0.15698239 -0.2793661 -0.21607868 0.06779141 -0.10025455 -0.16623247 0.039829146
0.12258415 0.09645069 0.10209926 0.1947358 -0.0035900054 0.12602264 0.1255688 0.15558244
-0.018586693 0.0701544 0.19926316 0.12654154 0.0065447376 -0.00491961 0.051781766 0.103902265
0.029830404 0.12777376 -0.27679738 -0.1170701 -0.041312072 0.14399356 0.15647024 0.0921357
0.21866599 0.005532469 0.124004856 0.06755404 0.09377313 0.20040524 0.22885478 0.0010919268
-0.12541354 -0.1722622 -0.1467228 -0.23137856 0.050786883 0.062150866 0.047346767 0.13056754
00000000: ff31 d83d c616 84bd f88f 05be ea3f 76be
00000010: 7727 82bb f3bb d2bc 3b1b be3b c49e 3abd
00000020: 0b8d debd 28f7 a8bd ced9 853e db26 35be
00000030: 6d53 ea3d 34bd 59be a153 093e 3201 b5bd
00000040: 6f40 1bbe febf 203e 1309 8fbe bb43 5dbe
00000050: 39d6 8a3d 4252 cdbd d838 2abe e323 233d
00000060: 660d fb3d f087 c53d 6b19 d13d d268 473e
00000070: 4c46 6bbb 140c 013e 1c95 003e 0151 1f3e
00000080: 1f43 98bc 1cad 8f3d a40b 4c3e 1b94 013e
00000090: 3d75 d63b ae34 a1bb 1e19 543d b6ca d43d
000000a0: e45e f43c 20d7 023e 63b8 8dbe 73c2 efbd
000000b0: d936 29bd 0c73 133e bc39 203e a4b1 bc3d
000000c0: fae9 5f3e b749 b53b 42f6 fd3d c659 8a3d
000000d0: 200c c03d 0837 4d3e e858 6a3e fc1e 8f3a
000000e0: 686c 00be 8165 30be 803e 16be 80ee 6cbe
000000f0: e805 503d e891 7e3d afee 413d 7fb3 053e

fc2.bias f4 [2]
0.09188459 0.12833607
00000000: fd2d bc3d 886a 033e
